…
2025-09-25 16:48:41,475 - INFO - Dataloader arguments: {'batch_size_train': 64, 'batch_size_test': 1000, 'shuffle_train': True, 'shuffle_test': False, 'train_transforms': Compose(
    RandomRotation(degrees=[-5.0, 5.0], interpolation=nearest, expand=False, fill=(0,))
    RandomAffine(degrees=[0.0, 0.0], translate=(0.03, 0.03))
    ToTensor()
    Normalize(mean=(0.1307,), std=(0.3081,))
), 'test_transforms': Compose(
    ToTensor()
    Normalize(mean=(0.1307,), std=(0.3081,))
)}
2025-09-25 16:48:41,508 - INFO - 
----------------------------------------------------------------
        Layer (type)               Output Shape         Param #
================================================================
            Conv2d-1            [-1, 4, 28, 28]              36
       BatchNorm2d-2            [-1, 4, 28, 28]               8
              ReLU-3            [-1, 4, 28, 28]               0
            Conv2d-4            [-1, 8, 28, 28]             288
       BatchNorm2d-5            [-1, 8, 28, 28]              16
              ReLU-6            [-1, 8, 28, 28]               0
         MaxPool2d-7            [-1, 8, 14, 14]               0
            Conv2d-8           [-1, 10, 14, 14]             720
       BatchNorm2d-9           [-1, 10, 14, 14]              20
             ReLU-10           [-1, 10, 14, 14]               0
           Conv2d-11           [-1, 16, 14, 14]           1,440
      BatchNorm2d-12           [-1, 16, 14, 14]              32
             ReLU-13           [-1, 16, 14, 14]               0
        MaxPool2d-14             [-1, 16, 7, 7]               0
           Conv2d-15              [-1, 8, 7, 7]             128
      BatchNorm2d-16              [-1, 8, 7, 7]              16
             ReLU-17              [-1, 8, 7, 7]               0
           Conv2d-18             [-1, 16, 7, 7]           1,152
      BatchNorm2d-19             [-1, 16, 7, 7]              32
             ReLU-20             [-1, 16, 7, 7]               0
           Conv2d-21             [-1, 10, 7, 7]             160
      BatchNorm2d-22             [-1, 10, 7, 7]              20
             ReLU-23             [-1, 10, 7, 7]               0
           Conv2d-24             [-1, 10, 5, 5]             900
        AvgPool2d-25             [-1, 10, 1, 1]               0
          Flatten-26                   [-1, 10]               0
================================================================
Total params: 4,968
Trainable params: 4,968
Non-trainable params: 0
----------------------------------------------------------------
Input size (MB): 0.00
Forward/backward pass size (MB): 0.39
Params size (MB): 0.02
Estimated Total Size (MB): 0.41
----------------------------------------------------------------
2025-09-25 16:48:41,511 - INFO - Training model for 15 epochs
…
