…
2025-09-25 16:20:17,305 - INFO - Dataloader arguments: {'batch_size_train': 96, 'batch_size_test': 1000, 'shuffle_train': True, 'shuffle_test': False, 'train_transforms': Compose(
    RandomRotation(degrees=[-7.0, 7.0], interpolation=nearest, expand=False, fill=(0,))
    RandomAffine(degrees=[0.0, 0.0], translate=(0.05, 0.05))
    ToTensor()
    Normalize(mean=(0.1307,), std=(0.3081,))
), 'test_transforms': Compose(
    ToTensor()
    Normalize(mean=(0.1307,), std=(0.3081,))
)}
2025-09-25 16:20:17,351 - INFO - 
----------------------------------------------------------------
        Layer (type)               Output Shape         Param #
================================================================
            Conv2d-1            [-1, 4, 28, 28]              36
       BatchNorm2d-2            [-1, 4, 28, 28]               8
              ReLU-3            [-1, 4, 28, 28]               0
            Conv2d-4            [-1, 8, 28, 28]             288
       BatchNorm2d-5            [-1, 8, 28, 28]              16
              ReLU-6            [-1, 8, 28, 28]               0
         MaxPool2d-7            [-1, 8, 14, 14]               0
            Conv2d-8           [-1, 10, 14, 14]             720
       BatchNorm2d-9           [-1, 10, 14, 14]              20
             ReLU-10           [-1, 10, 14, 14]               0
        Dropout2d-11           [-1, 10, 14, 14]               0
           Conv2d-12           [-1, 12, 14, 14]           1,080
      BatchNorm2d-13           [-1, 12, 14, 14]              24
             ReLU-14           [-1, 12, 14, 14]               0
        MaxPool2d-15             [-1, 12, 7, 7]               0
           Conv2d-16              [-1, 8, 7, 7]              96
      BatchNorm2d-17              [-1, 8, 7, 7]              16
             ReLU-18              [-1, 8, 7, 7]               0
           Conv2d-19             [-1, 12, 7, 7]             864
      BatchNorm2d-20             [-1, 12, 7, 7]              24
             ReLU-21             [-1, 12, 7, 7]               0
           Conv2d-22             [-1, 10, 7, 7]             120
      BatchNorm2d-23             [-1, 10, 7, 7]              20
             ReLU-24             [-1, 10, 7, 7]               0
           Conv2d-25             [-1, 10, 5, 5]             900
        AvgPool2d-26             [-1, 10, 1, 1]               0
          Flatten-27                   [-1, 10]               0
================================================================
Total params: 4,232
Trainable params: 4,232
Non-trainable params: 0
----------------------------------------------------------------
Input size (MB): 0.00
Forward/backward pass size (MB): 0.38
Params size (MB): 0.02
Estimated Total Size (MB): 0.40
----------------------------------------------------------------
2025-09-25 16:20:17,352 - INFO - Training model for 15 epochs
…
