…
    RandomAffine(degrees=[0.0, 0.0], translate=(0.1, 0.1))
    ToTensor()
    Normalize(mean=(0.1307,), std=(0.3081,))
)
2025-09-24 23:33:49,946 - INFO - Model v0 test transforms: Compose(
    ToTensor()
    Normalize(mean=(0.1307,), std=(0.3081,))
)
2025-09-24 23:33:50,082 - INFO - Model v0 setup: Using Adam optimizer with lr=0.001, StepLR scheduler with step_size=6, gamma=0.1 for 20 epochs
2025-09-24 23:33:50,114 - INFO - 
----------------------------------------------------------------
        Layer (type)               Output Shape         Param #
================================================================
            Conv2d-1            [-1, 4, 28, 28]              36
       BatchNorm2d-2            [-1, 4, 28, 28]               8
              ReLU-3            [-1, 4, 28, 28]               0
            Conv2d-4            [-1, 8, 28, 28]             288
       BatchNorm2d-5            [-1, 8, 28, 28]              16
              ReLU-6            [-1, 8, 28, 28]               0
         MaxPool2d-7            [-1, 8, 14, 14]               0
            Conv2d-8           [-1, 16, 14, 14]           1,152
       BatchNorm2d-9           [-1, 16, 14, 14]              32
             ReLU-10           [-1, 16, 14, 14]               0
           Conv2d-11           [-1, 32, 14, 14]           4,608
      BatchNorm2d-12           [-1, 32, 14, 14]              64
             ReLU-13           [-1, 32, 14, 14]               0
        MaxPool2d-14             [-1, 32, 7, 7]               0
           Conv2d-15             [-1, 40, 7, 7]          11,520
      BatchNorm2d-16             [-1, 40, 7, 7]              80
             ReLU-17             [-1, 40, 7, 7]               0
AdaptiveAvgPool2d-18             [-1, 40, 1, 1]               0
           Linear-19                   [-1, 10]             410
================================================================
Total params: 18,214
Trainable params: 18,214
Non-trainable params: 0
----------------------------------------------------------------
Input size (MB): 0.00
Forward/backward pass size (MB): 0.50
Params size (MB): 0.07
Estimated Total Size (MB): 0.57
----------------------------------------------------------------
2025-09-24 23:33:50,117 - INFO - Training model for 20 epochs
…
2025-09-24 23:56:54,124 - INFO - Dataloader arguments: {'batch_size_train': 128, 'batch_size_test': 1000, 'shuffle_train': True, 'shuffle_test': False, 'train_transforms': Compose(
    RandomRotation(degrees=[-15.0, 15.0], interpolation=nearest, expand=False, fill=(0,))
    RandomAffine(degrees=[0.0, 0.0], translate=(0.1, 0.1))
    ToTensor()
    Normalize(mean=(0.1307,), std=(0.3081,))
), 'test_transforms': Compose(
    ToTensor()
    Normalize(mean=(0.1307,), std=(0.3081,))
)}
2025-09-24 23:56:54,220 - INFO - 
----------------------------------------------------------------
        Layer (type)               Output Shape         Param #
================================================================
            Conv2d-1           [-1, 10, 26, 26]              90
       BatchNorm2d-2           [-1, 10, 26, 26]              20
              ReLU-3           [-1, 10, 26, 26]               0
            Conv2d-4           [-1, 10, 24, 24]             900
       BatchNorm2d-5           [-1, 10, 24, 24]              20
              ReLU-6           [-1, 10, 24, 24]               0
            Conv2d-7           [-1, 20, 22, 22]           1,800
       BatchNorm2d-8           [-1, 20, 22, 22]              40
              ReLU-9           [-1, 20, 22, 22]               0
        Dropout2d-10           [-1, 20, 22, 22]               0
        MaxPool2d-11           [-1, 20, 11, 11]               0
           Conv2d-12           [-1, 10, 11, 11]             200
      BatchNorm2d-13           [-1, 10, 11, 11]              20
             ReLU-14           [-1, 10, 11, 11]               0
           Conv2d-15             [-1, 10, 9, 9]             900
      BatchNorm2d-16             [-1, 10, 9, 9]              20
             ReLU-17             [-1, 10, 9, 9]               0
           Conv2d-18             [-1, 20, 7, 7]           1,800
      BatchNorm2d-19             [-1, 20, 7, 7]              40
             ReLU-20             [-1, 20, 7, 7]               0
        Dropout2d-21             [-1, 20, 7, 7]               0
           Conv2d-22             [-1, 10, 7, 7]             200
      BatchNorm2d-23             [-1, 10, 7, 7]              20
             ReLU-24             [-1, 10, 7, 7]               0
           Conv2d-25             [-1, 10, 1, 1]           4,900
================================================================
Total params: 10,970
Trainable params: 10,970
Non-trainable params: 0
----------------------------------------------------------------
Input size (MB): 0.00
Forward/backward pass size (MB): 0.69
Params size (MB): 0.04
Estimated Total Size (MB): 0.73
----------------------------------------------------------------
2025-09-24 23:56:54,229 - INFO - Training model for 15 epochs
…
2025-09-25 00:19:52,649 - INFO - Dataloader arguments: {'batch_size_train': 128, 'batch_size_test': 1000, 'shuffle_train': True, 'shuffle_test': False, 'train_transforms': Compose(
    RandomRotation(degrees=[-15.0, 15.0], interpolation=nearest, expand=False, fill=(0,))
    RandomAffine(degrees=[0.0, 0.0], translate=(0.1, 0.1))
    ToTensor()
    Normalize(mean=(0.1307,), std=(0.3081,))
), 'test_transforms': Compose(
    ToTensor()
    Normalize(mean=(0.1307,), std=(0.3081,))
)}
2025-09-25 00:19:52,685 - INFO - 
----------------------------------------------------------------
        Layer (type)               Output Shape         Param #
================================================================
            Conv2d-1            [-1, 4, 28, 28]              36
       BatchNorm2d-2            [-1, 4, 28, 28]               8
              ReLU-3            [-1, 4, 28, 28]               0
            Conv2d-4            [-1, 8, 28, 28]             288
       BatchNorm2d-5            [-1, 8, 28, 28]              16
              ReLU-6            [-1, 8, 28, 28]               0
         MaxPool2d-7            [-1, 8, 14, 14]               0
            Conv2d-8           [-1, 10, 14, 14]             720
       BatchNorm2d-9           [-1, 10, 14, 14]              20
             ReLU-10           [-1, 10, 14, 14]               0
        Dropout2d-11           [-1, 10, 14, 14]               0
           Conv2d-12           [-1, 12, 14, 14]           1,080
      BatchNorm2d-13           [-1, 12, 14, 14]              24
             ReLU-14           [-1, 12, 14, 14]               0
        MaxPool2d-15             [-1, 12, 7, 7]               0
           Conv2d-16              [-1, 8, 7, 7]              96
      BatchNorm2d-17              [-1, 8, 7, 7]              16
             ReLU-18              [-1, 8, 7, 7]               0
           Conv2d-19             [-1, 12, 7, 7]             864
      BatchNorm2d-20             [-1, 12, 7, 7]              24
             ReLU-21             [-1, 12, 7, 7]               0
           Conv2d-22             [-1, 10, 7, 7]             120
      BatchNorm2d-23             [-1, 10, 7, 7]              20
             ReLU-24             [-1, 10, 7, 7]               0
           Conv2d-25             [-1, 10, 5, 5]             900
        AvgPool2d-26             [-1, 10, 1, 1]               0
          Flatten-27                   [-1, 10]               0
================================================================
Total params: 4,232
Trainable params: 4,232
Non-trainable params: 0
----------------------------------------------------------------
Input size (MB): 0.00
Forward/backward pass size (MB): 0.38
Params size (MB): 0.02
Estimated Total Size (MB): 0.40
----------------------------------------------------------------
2025-09-25 00:19:52,687 - INFO - Training model for 15 epochs
…
2025-09-25 00:37:25,054 - INFO - Dataloader arguments: {'batch_size_train': 64, 'batch_size_test': 1000, 'shuffle_train': True, 'shuffle_test': False, 'train_transforms': Compose(
    RandomRotation(degrees=[-7.0, 7.0], interpolation=nearest, expand=False, fill=(0,))
    RandomAffine(degrees=[0.0, 0.0], translate=(0.08, 0.08))
    ToTensor()
    Normalize(mean=(0.1307,), std=(0.3081,))
), 'test_transforms': Compose(
    ToTensor()
    Normalize(mean=(0.1307,), std=(0.3081,))
)}
2025-09-25 00:37:25,103 - INFO - 
----------------------------------------------------------------
        Layer (type)               Output Shape         Param #
================================================================
            Conv2d-1            [-1, 8, 28, 28]              72
       BatchNorm2d-2            [-1, 8, 28, 28]              16
              ReLU-3            [-1, 8, 28, 28]               0
            Conv2d-4           [-1, 10, 28, 28]             720
       BatchNorm2d-5           [-1, 10, 28, 28]              20
              ReLU-6           [-1, 10, 28, 28]               0
         MaxPool2d-7           [-1, 10, 14, 14]               0
            Conv2d-8           [-1, 10, 14, 14]             900
       BatchNorm2d-9           [-1, 10, 14, 14]              20
             ReLU-10           [-1, 10, 14, 14]               0
        Dropout2d-11           [-1, 10, 14, 14]               0
           Conv2d-12           [-1, 16, 14, 14]           1,440
      BatchNorm2d-13           [-1, 16, 14, 14]              32
             ReLU-14           [-1, 16, 14, 14]               0
        MaxPool2d-15             [-1, 16, 7, 7]               0
           Conv2d-16             [-1, 10, 7, 7]             160
      BatchNorm2d-17             [-1, 10, 7, 7]              20
             ReLU-18             [-1, 10, 7, 7]               0
           Conv2d-19             [-1, 16, 7, 7]           1,440
      BatchNorm2d-20             [-1, 16, 7, 7]              32
             ReLU-21             [-1, 16, 7, 7]               0
           Conv2d-22             [-1, 10, 5, 5]           1,440
      BatchNorm2d-23             [-1, 10, 5, 5]              20
             ReLU-24             [-1, 10, 5, 5]               0
           Conv2d-25             [-1, 16, 3, 3]           1,440
        AvgPool2d-26             [-1, 16, 1, 1]               0
           Conv2d-27             [-1, 10, 1, 1]             160
================================================================
Total params: 7,932
Trainable params: 7,932
Non-trainable params: 0
----------------------------------------------------------------
Input size (MB): 0.00
Forward/backward pass size (MB): 0.51
Params size (MB): 0.03
Estimated Total Size (MB): 0.54
----------------------------------------------------------------
2025-09-25 00:37:25,106 - INFO - Training model for 15 epochs
…
