…
2025-09-25 13:24:52,228 - INFO - Dataloader arguments: {'batch_size_train': 64, 'batch_size_test': 1000, 'shuffle_train': True, 'shuffle_test': False, 'train_transforms': Compose(
    RandomRotation(degrees=[-5.0, 5.0], interpolation=nearest, expand=False, fill=(0,))
    RandomAffine(degrees=[0.0, 0.0], translate=(0.05, 0.05))
    ToTensor()
    Normalize(mean=(0.1307,), std=(0.3081,))
), 'test_transforms': Compose(
    ToTensor()
    Normalize(mean=(0.1307,), std=(0.3081,))
)}
2025-09-25 13:24:52,358 - INFO - 
----------------------------------------------------------------
        Layer (type)               Output Shape         Param #
================================================================
            Conv2d-1            [-1, 8, 28, 28]              72
       BatchNorm2d-2            [-1, 8, 28, 28]              16
              ReLU-3            [-1, 8, 28, 28]               0
         Dropout2d-4            [-1, 8, 28, 28]               0
            Conv2d-5           [-1, 10, 28, 28]             720
       BatchNorm2d-6           [-1, 10, 28, 28]              20
              ReLU-7           [-1, 10, 28, 28]               0
         MaxPool2d-8           [-1, 10, 14, 14]               0
            Conv2d-9           [-1, 10, 14, 14]             900
      BatchNorm2d-10           [-1, 10, 14, 14]              20
             ReLU-11           [-1, 10, 14, 14]               0
        Dropout2d-12           [-1, 10, 14, 14]               0
           Conv2d-13           [-1, 16, 14, 14]           1,440
      BatchNorm2d-14           [-1, 16, 14, 14]              32
             ReLU-15           [-1, 16, 14, 14]               0
        MaxPool2d-16             [-1, 16, 7, 7]               0
           Conv2d-17             [-1, 10, 7, 7]             160
      BatchNorm2d-18             [-1, 10, 7, 7]              20
             ReLU-19             [-1, 10, 7, 7]               0
        Dropout2d-20             [-1, 10, 7, 7]               0
           Conv2d-21             [-1, 16, 7, 7]           1,440
      BatchNorm2d-22             [-1, 16, 7, 7]              32
             ReLU-23             [-1, 16, 7, 7]               0
           Conv2d-24             [-1, 10, 5, 5]           1,440
      BatchNorm2d-25             [-1, 10, 5, 5]              20
             ReLU-26             [-1, 10, 5, 5]               0
        Dropout2d-27             [-1, 10, 5, 5]               0
           Conv2d-28             [-1, 16, 3, 3]           1,440
        AvgPool2d-29             [-1, 16, 1, 1]               0
           Conv2d-30             [-1, 10, 1, 1]             160
================================================================
Total params: 7,932
Trainable params: 7,932
Non-trainable params: 0
----------------------------------------------------------------
Input size (MB): 0.00
Forward/backward pass size (MB): 0.57
Params size (MB): 0.03
Estimated Total Size (MB): 0.60
----------------------------------------------------------------
2025-09-25 13:24:52,360 - INFO - Training model for 15 epochs
…
